NutriFitAI/Diet_Plan_Model/models/food_net.pt (torch, 50386 bytes, 5 tensors)

net.0.weight f4 [128, 27]
-0.0015380401 0.0014166614 -0.009664291 -0.0057824673 -0.014378976 -0.36749682 0.35858035 -0.01905919
0.03045723 0.10356958 0.12138994 -0.043158673 -0.1819634 0.00044625998 0.0064549907 -1.3132639
0.43480673 -0.5418236 -0.20895383 -0.20896932 -0.2274202 -0.22835006 -0.25338763 -0.20777872
-0.19251671 -0.20158644 -0.24387467 -0.00900617 0.03517678 0.0034428174 -0.0052538696 -0.006105824
-0.04530943 0.0053287325 -0.0029018407 -0.0009877232 0.39767987 -0.08575097 0.002448195 0.04602006
-0.022478 -0.011983463 0.057990383 0.10285577 0.16839857 0.107238844 0.11631872 0.1292322
0.15572883 0.17314553 0.077362895 0.078080155 0.064941235 0.12931061 0.0026300843 0.008646719
0.0070201815 -0.0095981555 -0.0003547528 0.03558083 -0.045314234 -0.0020228266 -0.03554678 0.32879308
-0.048854798 -0.07864068 -0.10135808 0.06517075 -0.0780008 0.08914707 0.21236768 -1.6935681
-0.010350389 3.3115225e-06 -0.006959092 0.0027817055 0.006828698 -0.0041850805 -0.0046003778 -0.011947213
0.14797427 -0.011400654 0.04208745 -0.00017132095 -0.009116129 -0.0046527814 -0.025658157 -0.0052428446
0.007662226 -0.011454859 0.25288635 0.022683226 -0.092031814 -0.084957 -0.003022492 -0.1072889
-0.012412323 0.26851195 -1.683001 -0.1634912 -0.14063552 -0.14077872 -0.11860649 -0.10140659
-0.12396273 -0.17756462 -0.20032325 0.053700376 -0.005321894 0.03686584 -0.0032391776 -0.01643142
-0.013278533 -0.09731584 0.047311623 0.020100884 0.017038725 0.05970058 0.14678085 0.01237106
0.12020497 -0.0063126087 0.06314434 -1.6309268 0.44593418 0.46113455 -0.18628085 -0.15177543
-0.14145234 -0.10070214 -0.084357984 0.00012898628 -0.029385379 -0.01145192 -0.10235107 -0.0119584985
0.032116957 -0.0059391437 -0.013329261 -0.0042801285 -0.025000773 0.00026371118 -0.007283079 0.023150606
0.40451324 -0.123804204 -0.037665084 0.087950036 0.06663813 0.0005980146 0.087203056 0.1154842
-0.48034385 0.012087664 0.021912415 0.02161217 0.03995866 0.03470481 -0.0457822 -0.021625247
-0.03145017 -0.02418172 0.008247229 -0.013187076 0.0031111143 0.005120792 0.0020046094 0.03878925
-0.024452584 -0.017603183 0.0010061032 -1.0397612 0.2875986 0.0405303 0.06692834 0.006005302
-0.028421968 0.058162317 -0.43363473 -0.6291027 -0.06805673 -0.0648489 -0.06679312 -0.0745574
-0.08330034 -0.12579574 -0.1370143 -0.12618071 -0.11422396 -0.0019566207 -0.035070244 0.0032388826
0.024852494 -0.003997536 -0.117020346 0.12096518 -0.02205277 0.014598179 0.2432876 0.15337637
0.08557206 -0.18502864 -0.13611893 0.025847774 -0.14111483 0.029940678 0.114133604 0.034332793
-0.0015394582 0.014684392 0.0021022717 0.032123543 -0.015115165 -7.013354e-05 -0.13059147 -0.026761854
0.02304724 -0.082685985 -0.0022436555 0.039695106 0.016347887 0.049531188 0.044350058 -0.011772703
-0.020325698 0.14503601 0.23745959 0.043674994 -0.15498178 -0.07734338 0.01867586 0.16228631
-0.037623793 -0.117941976 0.08406295 0.061479587 0.02133741 -0.018915894 -0.05833334 -0.044184975
-0.018232144 -0.06473145 -0.07149465 -0.029795846 0.08569313 0.030588837 -0.0024615615 -0.02340695
-0.026331652 -0.08823631 -0.024610274 -0.008899959 0.26282087 0.0531173 -0.09689676 0.021588385
00000000: 1098 c9ba 45af b93a f956 1ebc da7a bdbb
00000010: cc95 6bbc 8b28 bcbe d897 b73e 0522 9cbc
00000020: 7181 f93c 4a1c d43d 4a9b f83d 26c7 30bd
00000030: 9d54 3abe 00f8 e939 6384 d33b 0819 a8bf
00000040: fd9e de3e f4b4 0abf fef7 55be 0efc 55be
00000050: d7e0 68be 99d4 69be 06bc 81be f2c3 54be
00000060: 1a23 45be ad6c 4ebe 48ba 79be 9d8e 13bc
00000070: 8715 103d e4a0 613b a728 acbb 5d13 c8bb
00000080: 6296 39bd a69c ae3b cf2c 3ebb 7e76 81ba
00000090: b29c cb3e 349e afbd e571 203b 887f 3c3d
000000a0: c823 b8bc 4956 44bc 5387 6d3d 0ca6 d23d
000000b0: ad70 2c3e 0aa0 db3d 8238 ee3d 7255 043e
000000c0: 6177 1f3e 104d 313e 7070 9e3d 7de8 9f3d
000000d0: e9ff 843d 006a 043e 7e5d 2c3b f8aa 0d3c
000000e0: 8d09 e63b 9541 1dbc 1dfe b9b9 34bd 113d
000000f0: 6b9b 39bd 6691 04bb 8099 11bd 9157 a83e
00000100: f81b 48bd 5d0e a1bd d394 cfbd 3e78 853d
00000110: e2be 9fbd bd92 b63d ea76 593e d7c6 d8bf
00000120: ae94 29bc 863b 5e36 1809 e4bb 464d 363b
00000130: 45c3 df3b 0023 89bb c4be 96bb 3ebe 43bc
00000140: 9186 173e cfc9 3abc e463 2c3d 9ea4 33b9
00000150: d15b 15bc 5c76 98bb 0e31 d2bc 2bcc abbb
00000160: 6913 fb3b 29ad 3bbc 527a 813e 2cd2 b93c
00000170: 2d7b bcbd f0fd adbd 0015 46bb 48ba dbbd
00000180: 0e5d 4bbc 667a 893e 946c d7bf 3d6a 27be
00000190: c202 10be 4c28 10be f6e7 f2bd 42ae cfbd
000001a0: 2ce0 fdbd 80d3 35be 8a21 4dbe edf4 5b3d
000001b0: 4863 aebb a300 173d 6248 54bb 2f9b 86bc
000001c0: 348e 59bc 874d c7bd d5c9 413d 9caa a43c
000001d0: cc94 8b3c 9888 743d b84d 163e fdaf 4a3c
000001e0: 062e f63d 00da cebb d251 813d 36c2 d0bf
000001f0: 7c51 e43e d419 ec3e 68c0 3ebe 056b 1bbe
00000200: e2d8 10be ec3c cebd e1c3 acbd 7e40 0739
00000210: 9bb9 f0bc d5a0 3bbc 709d d1bd 94ed 43bc
00000220: 128d 033d 269d c2bb f962 5abc 5240 8cbb
00000230: 6cce ccbc b742 8a39 e5a6 eebb 57a6 bd3c
00000240: 5c1c cf3e 0f8d fdbd b446 1abd 261f b43d
00000250: 9279 883d 15c4 1c3a 8497 b23d fb82 ec3d
00000260: a1ef f5be 560b 463c aa81 b33c 010c b13c
00000270: b1ab 233d a126 0e3d 1e86 3bbd 6e27 b1bc
00000280: e5d1 00bd be18 c6bc 631f 073c 9b0e 58bc
00000290: d6e3 4b3b 51cc a73b c45f 033b 7ae1 1e3d
000002a0: c950 c8bc 8d34 90bc 39df 833a e516 85bf
000002b0: 2040 933e 1a03 263d ba11 893d 20c8 c43b
000002c0: 30d5 e8bc 9c3b 6e3d 5f05 debe e00c 21bf
000002d0: 5461 8bbd 80cf 84bd d5ca 88bd 8db1 98bd
000002e0: 5e99 aabd 99d0 00be 7a4d 0cbe 8435 01be
000002f0: 40ee e9bd a63a 00bb d1a5 0fbd 6f43 543b
00000300: 7597 cb3c c3fd 82bb 5da8 efbd 98bc f73d
00000310: 03a8 b4bc 332d 6f3c 6220 793e b20e 1d3e
00000320: 6740 af3d 2678 3dbe c362 0bbe b6be d33c
00000330: 6880 10be 2746 f53c e1be e93d 8ba0 0c3d
00000340: a5c7 c9ba ce96 703c 44c6 093b fa93 033d
00000350: 99a5 77bc a814 93b8 c5b9 05be ad3b dbbc
00000360: 91cd bc3c 4557 a9bd 4b0a 13bb 5697 223d
00000370: 01ec 853c 37e1 4a3d 68a8 353d 4ce2 40bc
00000380: 1482 a6bc 5284 143e 9b28 733e 8de4 323d
00000390: 8bb3 1ebe 3566 9ebd 1efe 983c 622e 263e
000003a0: 681b 1abd 908b f1bd 3229 ac3d 05d2 7b3d
000003b0: cbcb ae3c 81f5 9abc f1ee 6ebd 4efb 34bd
000003c0: 945b 95bc ec91 84bd c96b 92bd 6b16 f4bc
000003d0: e17f af3d 7195 fa3c 2652 21bb efbf bfbc
000003e0: 7ab5 d7bc 3db5 b4bd 7c9b c9bc 22d1 11bc
000003f0: 7590 863e 8791 593d cf71 c6bd 20da b03c

net.0.bias f4 [128]
-0.16028363 -0.10110115 -0.14080031 0.060453925 -0.3281541 0.08860765 -0.35675067 -0.016319832
0.05666954 -0.1952028 0.023948204 -0.26718885 -0.24316692 0.0424751 -0.107364744 -0.57121843
-0.38510913 -0.54164284 -0.2832697 -0.34840268 -0.28763336 -0.3890059 -0.20836107 -0.17073663
-0.23492995 -0.21388921 -0.1131369 0.051520683 -0.09285371 -0.4426164 -0.58382034 -0.19846515
-0.24651931 -0.28930312 -0.36351463 0.019290518 -0.07726557 -0.080213666 -0.05715399 -0.014540134
0.028547736 -0.5989976 -0.13176115 -0.11023605 -0.05525784 -0.3267416 0.11776418 -0.3050807
-0.29340434 -0.1761694 -0.29156473 0.0723472 -0.038016085 0.05566447 -0.0018589684 -0.09217167
-0.43587598 -0.12532626 -0.25330043 -0.15087736 -0.36403045 -0.1915505 -0.49983674 0.040191293
-0.13597885 -0.32257006 -0.07363185 0.047677886 -0.06613088 -0.4097039 -0.335777 -0.26558602
-0.315543 -0.0874135 0.033892408 -0.3133158 -0.26758724 -0.13372998 -0.0021018668 0.10020096
-0.34016854 -0.37594047 0.038252857 -0.16974592 -0.047634587 -0.3517953 -0.29613748 -0.3265879
-0.004762985 0.081194624 0.11766399 -0.056270756 -0.07259582 0.094832584 -0.23818398 -0.11176532
-0.13741681 -0.12420339 -0.15806934 -0.3280487 -0.5288931 -0.34255013 0.12009368 0.06980456
-0.016344111 -0.27740502 -0.17501959 -0.4137372 0.033044863 -0.15632784 -0.041907996 -0.115026146
-0.07706539 -0.105698034 0.10640584 -0.056565363 -0.24220417 -0.050064433 -0.47539097 -0.07131237
0.102237575 -0.013450013 -0.09786104 -0.41549805 -0.007227925 -0.28899285 -0.20388669 -0.47223964
00000000: 6421 24be 1f0e cfbd f52d 10be 899e 773d
00000010: d003 a8be ed77 b53d 06a8 b6be 2bb1 85bc
00000020: 521e 683d 3ee3 47be 062f c43c facc 88be
00000030: c000 79be 5ffa 2d3d 0ce2 dbbd 5f3b 12bf
00000040: 062d c5be 1ba9 0abf ba08 91be d661 b2be
00000050: ae44 93be c82b c7be 9b5c 55be 95d5 2ebe
00000060: 7a91 70be c605 5bbe 52b4 e7bd 5a07 533d
00000070: 162a bebd 9e9e e2be 4075 15bf 733a 4bbe
00000080: 8f6f 7cbe 8a1f 94be 971e babe 2607 9e3c
00000090: 693d 9ebd 1047 a4bd 4d1a 6abd be39 6ebc
000000a0: f1dc e93c e857 19bf 65ec 06be 70c3 e1bd
000000b0: 0b56 62bd ad4a a7be 592e f13d 8a33 9cbe
000000c0: 1839 96be c065 34be f947 95be c52a 943d
000000d0: c1b6 1bbd 6d00 643d a1a8 f3ba 80c4 bcbd
000000e0: 232b dfbe 8755 00be 98b0 81be 987f 1abe
000000f0: 3362 babe d025 44be 9aea ffbe a09f 243d
00000100: 0a3e 0bbe e727 a5be 4ccc 96bd e349 433d
00000110: a06f 87bd b6c4 d1be f7ea abbe e4fa 87be
00000120: da8e a1be d905 b3bd c4d2 0a3d ee6a a0be
00000130: 3201 89be 83f0 08be 79bf 09bb 2936 cd3d
00000140: 922a aebe 457b c0be 07af 1c3d e0d1 2dbe
00000150: 7c1c 43bd 831e b4be 559f 97be 8736 a7be
00000160: d012 9cbb 5e49 a63d d1f9 f03d 2a7c 66bd
00000170: 1ead 94bd 9637 c23d 80e6 73be 37e5 e4bd
00000180: feb6 0cbe 595e febd eedc 21be 00f6 a7be
00000190: 8a65 07bf bb62 afbe adf3 f53d b1f5 8e3d
000001a0: 16e4 85bc 0808 8ebe 5638 33be 5dd5 d3be
000001b0: 0d5a 073d 6814 20be b8a7 2bbd d492 ebbd
000001c0: 76d4 9dbd 3678 d8bd 4eeb d93d 15b1 67bd
000001d0: 5f04 78be 5d10 4dbd 7266 f3be 380c 92bd
000001e0: ef61 d13d 715d 5cbc 5e6b c8bd 29bc d4be
000001f0: 3bd8 ecbb dff6 93be acc7 50be 65c9 f1be

net.3.weight f4 [64, 128]
0.14527111 -0.003712078 0.10654825 0.10526043 0.08191089 0.093234666 0.028888708 0.00853035
0.08471829 0.12841836 0.010178335 0.13559313 0.08909989 0.13063733 0.12081609 -0.13914166
0.26530954 -0.1401581 -0.404879 0.07745092 -0.24624851 0.29146212 0.028866755 0.13039309
0.21285142 -0.30085683 0.112577654 -0.017254803 -0.030716032 0.22533333 -0.30238208 -0.08730699
0.17985961 0.11281315 0.014815761 0.049870647 0.16827932 0.12155675 0.08754923 0.002875051
0.08915877 0.5929018 0.08599503 0.013194634 -0.15188709 -0.353126 0.090540096 0.055277046
-0.1880353 0.08113564 -0.12577894 0.025951345 0.15157805 0.113570616 0.12124847 0.0547444
0.39038655 0.12557845 0.011175894 -0.26432323 0.18734467 0.11607429 0.5522449 -0.034452397
0.10110311 0.14982505 0.064263865 0.01946289 0.09240685 0.09436697 -0.833213 0.09914199
0.13911435 0.15192433 0.077789046 0.023000836 0.0076847337 0.11162931 0.13303176 0.07002007
0.16269471 0.1603099 0.09689696 -0.26387653 0.13439651 0.19973454 0.012008131 -0.46911442
0.027224228 0.032032076 0.03634999 0.10496974 -0.008595937 0.05434244 0.15050887 0.06674181
0.11695622 0.057851147 0.06862391 0.23327439 0.35947946 -0.19800356 0.0075245956 0.069254905
0.11885555 0.14367506 0.095038794 -0.25042212 0.06607339 0.15648241 0.12660927 -0.009438932
0.103561364 0.12968582 0.08401661 -0.021039512 0.03971976 0.09337249 0.19357558 0.08775516
0.02587643 -0.020708177 0.0040268465 0.1140142 0.041349627 0.029959006 0.06580316 0.30467942
-0.5394621 -0.18978497 -0.5431733 -0.04990644 -0.3258496 -0.23626274 -0.15805675 0.08700835
0.064863294 -0.024749372 0.012469133 -0.12110009 -0.6905514 0.034556907 0.2771121 0.07231805
-1.4423476 0.13278748 -0.049002763 0.19847086 0.37559646 -0.4582943 0.21171772 -0.21056518
-0.18860479 0.3311411 -0.095830575 -0.03393324 -0.04213257 -0.27644467 0.18411915 0.34524903
-0.72177655 -0.009046669 0.22650054 -0.044439 -0.018343702 -0.12435338 -0.36508575 -0.03661648
0.0065067066 -0.5765592 -0.08017539 0.0833504 -0.33532372 0.21015908 -0.0916577 -0.2068737
-0.06866392 -0.3456915 0.026471384 0.098763295 -0.022780173 0.2379937 -0.49375978 0.029723352
-0.9745213 -0.10451421 0.25196117 0.12710407 0.07755937 -0.06894877 -0.6637282 -0.08215741
0.12122751 -0.39847 0.19167416 0.0010592128 -0.019105086 -0.9238335 0.20161621 -0.051722784
-0.90961397 0.014535988 -0.040361352 -0.7435214 0.075807266 0.10000452 -0.12020746 -0.03231304
-0.06159271 -0.37249213 -0.21279638 0.060445126 -0.09721184 -0.13647798 -0.3933352 0.17515306
0.3922748 -0.22640154 0.0052190204 0.18824428 0.060070127 0.033696916 -0.2553476 0.14299904
0.121901646 0.1824296 0.23068938 -1.0260849 -1.6764001 0.60159934 -0.1965915 0.03159905
0.063110754 -0.8059172 -0.6320654 0.2687784 0.015435738 -0.123316154 0.21846217 0.14325905
0.0034424241 0.10227014 -0.03216405 -0.053397473 -0.96119195 0.13719602 -1.2818491 -0.17893665
-0.16042204 -0.014998816 -0.46424317 -1.0168742 -0.19578351 0.0051301224 0.18899384 -2.2773397
00000000: f3c1 143e 5646 73bb f835 da3d c892 d73d
00000010: e6c0 a73d d1f1 be3d 03a8 ec3c e2c2 0b3c
00000020: c880 ad3d 1a80 033e 08c3 263c edd8 0a3e
00000030: 017a b63d cbc5 053e 6d6e f73d 277b 0ebe
00000040: a7d6 873e 9b85 0fbe 4d4c cfbe 979e 9e3d
00000050: 9228 7cbe 863a 953e f979 ec3c c485 053e
00000060: b9f5 593e e809 9abe 1d8f e63d f259 8dbc
00000070: 30a0 fbbc c8bd 663e d3d1 9abe 02ce b2bd
00000080: 1e2d 383e 950a e73d cebd 723c 2a45 4c3d
00000090: 6a51 2c3e bff2 f83d 034d b33d 5a6b 3c3b
000000a0: e098 b63d 6ac8 173f 2a1e b03d 4e2e 583c
000000b0: 4a88 1bbe eecc b4be 166d b93d 2f6a 623d
000000c0: 538c 40be 712a a63d 32cc 00be ea97 d43c
000000d0: 4737 1b3e b697 e83d 1e51 f83d aa3b 603d
000000e0: bfe0 c73e a397 003e 191b 373c 6055 87be
000000f0: 48d7 3f3e 5bb8 ed3d ec5f 0d3f f51d 0dbd
00000100: 260f cf3d bd6b 193e c69c 833d a470 9f3c
00000110: cd3f bd3d 7843 c13d 724d 55bf f50a cb3d
00000120: fe73 0e3e 0d92 1b3e dd4f 9f3d 406c bc3c
00000130: 38d0 fb3b e89d e43d 7a39 083e af66 8f3d
00000140: 7199 263e 4728 243e ea71 c63d d31a 87be
00000150: 3d9f 093e 3687 4c3e c0bd 443c c42f f0be
00000160: 5805 df3c 1134 033d bae3 143d 60fa d63d
00000170: f9d5 0cbc 2e96 5e3d ff1e 1a3e eeaf 883d
00000180: be86 ef3d 53f5 6c3d b18a 8c3d 7bdf 6e3e
00000190: b10d b83e 72c1 4abe e290 f63b 84d5 8d3d
000001a0: 8a6a f33d 8e1f 133e b3a3 c23d 5437 80be
000001b0: 7c51 873d ed3c 203e dca5 013e c0a5 1abc
000001c0: fb17 d43d 5ccc 043e e710 ac3d 0e5b acbc
000001d0: 30b1 223d 133a bf3d ad38 463e fab8 b33d
000001e0: cffa d33c 32a4 a9bc a3f3 833b 4780 e93d
000001f0: 3a5e 293d 976c f53c cfc3 863d f1fe 9b3e
00000200: 301a 0abf fe56 42be 680d 0bbf b26a 4cbd
00000210: c2d5 a6be dcee 71be a1d9 21be 6f31 b23d
00000220: 0cd7 843d 32bf cabc 564b 4c3c 5303 f8bd
00000230: fac7 30bf 8b8b 0d3d a3e1 8d3e 7c1b 943d
00000240: d99e b8bf 71f9 073e 1fb7 48bd f23b 4b3e
00000250: 2e4e c03e 8da5 eabe 88cc 583e 669e 57be
00000260: 9d21 41be 548b a93e d242 c4bd 95fd 0abd
00000270: 3493 2cbd 288a 8dbe bb89 3c3e 7bc4 b03e
00000280: 59c6 38bf 7b38 14bc c2ef 673e ab05 36bd
00000290: 8845 96bc fcac febd 85ec babe 2afb 15bd
000002a0: 3636 d53b 6299 13bf ff32 a4bd 9db3 aa3d
000002b0: 8daf abbe f133 573e 08b7 bbbd b3d6 53be
000002c0: ab9f 8cbd 7afe b0be 84da d83c 6944 ca3d
000002d0: 7c9d babc 9fb4 733e 15ce fcbe 637e f33c
000002e0: 3a7a 79bf 8c0b d6bd 0e01 813e 9227 023e
000002f0: 72d7 9e3d 0335 8dbd 17ea 29bf 2542 a8bd
00000300: 2146 f83d 4304 ccbe 3b46 443e 49d5 8a3a
00000310: 4582 9cbc 5a80 6cbf 7b74 4e3e 45db 53bd
00000320: 76dc 68bf 5a28 6e3c f251 25bd 6b57 3ebf
00000330: d740 9b3d 2bcf cc3d 542f f6bd ae5a 04bd
00000340: a348 7cbd 4ab7 bebe 4be7 59be 4f95 773d
00000350: 0017 c7bd e2c0 0bbe 3b63 c9be 535b 333e
00000360: 3ed8 c83e ced5 67be 5104 ab3b 1cc3 403e
00000370: 180c 763d c705 0a3d ecbc 82be 576e 123e
00000380: 92a7 f93d d3ce 3a3e d639 6c3e c056 83bf
00000390: 4794 d6bf 6a02 1a3f 484f 49be 016e 013d
000003a0: 3640 813d 9750 4ebf 0acf 21bf 539d 893e
000003b0: 2de6 7c3c 2e8d fcbd 8cb4 5f3e 80b2 123e
000003c0: 4b9a 613b 0273 d13d 73be 03bd 4fb7 5abd
000003d0: ad10 76bf 1d7d 0c3e a213 a4bf 2b3b 37be
000003e0: ad45 24be 98bd 75bc 48b1 edbe ef28 82bf
000003f0: 797b 48be 961a a83b 9a87 413e efbf 11c0

net.3.bias f4 [64]
0.93103266 0.10964235 0.89830977 0.95217633 0.9610437 -0.68517685 0.20503964 0.51819575
0.106616065 1.032017 -0.46886316 0.6150946 0.99004686 0.91056794 0.99635553 0.93644834
1.0438333 0.8916372 0.95261085 0.839439 0.91007733 0.89393216 0.87621605 0.8958647
0.98121274 0.8980778 0.95695674 0.9101899 0.42424104 -0.4505544 -0.12882732 0.8683757
0.0011247029 0.3882417 0.16934992 0.8835073 0.9241872 -1.0315553 0.84461236 0.9545939
0.8409817 0.8578902 0.9721002 0.84783787 0.9717027 0.87767047 0.8563404 0.8264358
0.9283106 0.25171983 0.6147709 0.65924436 0.87949425 0.81163436 0.98055184 0.73349434
0.84799725 0.9721736 0.6008154 0.9120605 1.018584 0.9500221 0.4145959 -0.08609749
00000000: 2858 6e3f 2b8c e03d a1f7 653f d4c1 733f
00000010: f606 763f c067 2fbf e9f5 513e 7aa8 043f
00000020: 8659 da3d 2219 843f d50e f0be d776 1d3f
00000030: b673 7d3f fb1a 693f 2811 7f3f 14bb 6f3f
00000040: 549c 853f 5642 643f 4ede 733f 79e5 563f
00000050: d4fa 683f bdd8 643f b24f 603f 6457 653f
00000060: c230 7b3f 6de8 653f 1efb 743f 3502 693f
00000070: 1f36 d93e 11af e6be 4feb 03be df4d 5e3f
00000080: c46a 933a 9ec7 c63e 116a 2d3e 892d 623f
00000090: 8897 6c3f 010a 84bf 8438 583f 4460 743f
000000a0: 944a 573f b19e 5b3f 8fdb 783f e70b 593f
000000b0: 82c1 783f 03af 603f 2039 5b3f 4c91 533f
000000c0: c3a5 6d3f 6ce1 803e a061 1d3f 3dc4 283f
000000d0: 8926 613f 45c7 4f3f 7205 7b3f 49c6 3b3f
000000e0: 5916 593f 5ee0 783f 0acf 193f cc7c 693f
000000f0: f660 823f a634 733f ea45 d43e e153 b0bd

net.6.weight f4 [1, 64]
0.23569368 -0.6068618 0.26682702 0.27331552 0.34864637 -2.2432308 -0.621618 -0.7046292
-0.6348799 0.24431321 -0.76797473 -0.7375978 0.25750893 0.32801315 0.22907801 0.24424717
0.42358005 0.26665506 0.2677126 -2.9485793 0.25889912 0.2831516 0.34471062 0.342289
0.26242957 0.29292166 0.23696367 0.26372072 -0.67401606 -0.75344235 -0.038652807 0.31977245
-0.72858864 -0.7781437 -0.7658631 0.26006547 0.28251776 -2.1069272 0.33785424 0.25684258
0.3743088 0.30853066 0.44095233 0.29457852 0.25139466 0.33209816 0.3179737 0.3292232
0.29485548 -0.68136585 -2.3379612 -0.9097994 0.2685604 0.4245151 0.25328222 -0.889882
0.33074537 0.23480292 -0.77803683 0.27803686 -2.984763 0.25267565 -0.67621154 -0.02963153
00000000: af59 713e 4c5b 1bbf 8d9d 883e 03f0 8b3e
00000010: c781 b23e 1891 0fc0 5b22 1fbf 9462 34bf
00000020: 7d87 22bf 3e2d 7a3e fe99 44bf 36d3 3cbf
00000030: 36d8 833e 57f1 a73e 6d93 6a3e ee1b 7a3e
00000040: 7cdf d83e 0387 883e a011 893e 86b5 3cc0
00000050: 6d8e 843e 3ff9 903e e97d b03e 8140 af3e
00000060: 2b5d 863e d4f9 953e 9ba6 723e 6706 873e
00000070: 518c 2cbf 99e1 40bf 6852 1ebd 37b9 a33e
00000080: c984 3abf 6d34 47bf 9b0f 44bf 4d27 853e
00000090: 2ba6 903e e5d7 06c0 3bfb ac3e df80 833e
000000a0: 67a5 bf3e bbf7 9d3e 81c4 e13e ffd2 963e
000000b0: cdb6 803e c508 aa3e 73cd a23e f18f a83e
000000c0: 4cf7 963e fe6d 2ebf 28a1 15c0 9de8 68bf
000000d0: c080 893e 0b5a d93e 35ae 813e 4fcf 63bf
000000e0: 7557 a93e 2d70 703e 6c2d 47bf d95a 8e3e
000000f0: 5b06 3fc0 b45e 813e 331c 2dbf d3bd f2bc
