NutriFitAI/Diet_Plan_Model/models/profile_net.pt (torch, 81776 bytes, 10 tensors)

backbone.0.weight f4 [128, 13]
0.2179266 0.28840294 0.37240672 -0.018871091 0.14308262 0.3257502 0.55299777 0.46363825
0.13482508 -0.13345659 0.51960653 0.4471459 0.85063106 -0.3690337 0.055715237 -0.3464564
-0.31545198 -0.49707305 0.7726333 0.298845 0.8430413 0.39087194 0.53431207 0.36823666
0.7981066 0.77558947 -0.40133882 0.2990621 0.17060798 -0.26797378 0.0011149345 0.67225647
0.12248514 0.6917783 -0.21399522 0.20918448 0.35362262 0.68693465 0.67166114 -0.06862024
0.09286901 0.34024584 0.06551263 -0.024075845 0.17015289 0.7038512 0.58022696 -0.066319615
0.08366043 0.41326213 0.724629 0.8579548 -0.19086719 0.47581553 0.19195227 0.18732266
0.07392863 -0.1325779 0.86390436 0.56653625 -0.3306415 0.1534017 0.1487746 0.62729955
0.9731639 0.10367368 0.25099382 0.3185329 -0.23280263 -0.077894695 0.58901626 0.13635641
0.38859323 0.031792562 0.3419055 0.3430259 0.72199494 0.5204571 0.2169241 0.3552472
-0.05641045 0.38537747 -0.07733924 0.57064337 0.40504244 0.4030551 0.09827075 -0.11671189
0.4085076 0.7653055 0.76956385 -0.3353849 0.35204607 -0.27911654 -0.0541606 -0.276894
-0.16624285 0.86733073 0.5427116 -0.393215 0.10354032 0.3416157 0.70492524 0.8384742
0.2142902 0.13294014 -0.13493198 0.3870638 0.00048615207 0.8791561 0.5253243 0.3387863
-0.07971068 -0.061833173 0.31272548 0.31481284 0.48409122 0.061801624 0.16874313 0.048356257
0.18114273 -0.3010288 0.385634 0.6880989 0.26153892 -0.015416252 0.17168926 0.33134314
0.24815497 0.70848566 0.18344396 0.6501057 0.28097004 -0.25175613 -0.49848628 -0.26291096
0.95679396 0.2086995 -0.62662315 -0.43472666 0.2198391 0.38604465 0.82788783 -0.30321205
0.055845276 -0.10456564 0.3152573 -0.32993302 0.46100283 0.46912658 0.63741803 -0.3957852
0.18841186 0.57213545 0.32732022 0.5426717 -0.19273247 0.1961292 0.2371984 0.08964849
-0.42000487 -0.50989795 0.8354425 0.5394506 -0.43779284 0.2907687 -0.09995798 0.5010617
0.9406307 -0.08732621 0.44211367 0.023553435 0.041831054 -0.21271476 0.21439628 0.6522629
0.6891328 -0.010766734 0.34090108 0.39510626 0.7342794 0.6679921 0.1728906 0.47748685
-0.14566046 0.3674196 -0.14667676 -0.051128652 0.6927278 0.65464365 -0.80099666 0.13089968
0.49289185 0.68504715 0.9872093 0.27479583 0.3163854 0.4569646 -0.052637447 -0.2255743
0.4122015 0.468291 0.7262066 -0.0902761 0.30974284 0.13149132 0.6980063 0.69759727
-0.086824186 0.33719468 0.2877517 0.13686062 -0.076043434 0.25753006 0.81967247 0.5383146
0.15328515 0.20713405 0.40206614 0.7847778 0.9000398 -0.31923902 0.3975134 0.14721633
-0.3211397 -0.46241635 -0.20567793 0.9826052 0.3240592 -0.57308406 -0.36992806 0.36510858
0.37826538 0.6584205 -0.042013433 0.37702674 -0.08103289 -0.05071718 -0.27050528 0.19614844
0.89210135 0.43218473 0.17489068 0.46067232 0.4814965 0.6329426 0.68434304 -0.30321112
0.3038847 0.32673615 0.2624592 0.13131008 0.73620856 0.42709127 0.47528374 0.08481163
00000000: 2728 5f3e 8da9 933e 18ac be3e 8c97 9abc
00000010: 4084 123e bbc8 a63e 4391 0d3f fe61 ed3e
00000020: 960f 0a3e d8a8 08be ef04 053f 4ff0 e43e
00000030: f5c2 593f fcf1 bcbe a935 643d bc62 b1be
00000040: ec82 a1be 5c80 febe 4ccb 453f 3602 993e
00000050: 8ed1 573f 5e20 c83e adc8 083f 8489 bc3e
00000060: b750 4c3f 088d 463f 487c cdbe ab1e 993e
00000070: dcb3 2e3e dc33 89be fe22 923a 0019 2c3f
00000080: 7dd9 fa3d 6218 313f 9021 5bbe 7534 563e
00000090: 060e b53e f3da 2f3f fcf1 2b3f c588 8cbd
000000a0: 1c32 be3d b434 ae3e 7c2b 863d b53a c5bc
000000b0: 8f3c 2e3e 982f 343f c189 143f 94d2 87bd
000000c0: 2956 ab3d 1897 d33e 4981 393f eda2 5b3f
000000d0: b072 43be 189e f33e 238f 443e 83d1 3f3e
000000e0: e567 973d 80c2 07be d628 5d3f 8508 113f
000000f0: d849 a9be 5615 1d3e 5e58 183e b496 203f
00000100: 4521 793f de52 d43d 4382 803e bf16 a33e
00000110: d063 6ebe 4187 9fbd c5c9 163f 04a1 0b3e
00000120: b1f5 c63e eb38 023d 3d0e af3e 17a1 af3e
00000130: a9d4 383f ad3c 053f 5a21 5e3e f6e2 b53e
00000140: a50e 67bd 3250 c53e 0964 9ebd af15 123f
00000150: b961 cf3e 3d5d ce3e 2d42 c93d a506 efbd
00000160: e827 d13e 10eb 433f 2302 453f 92b7 abbe
00000170: 623f b43e 5de8 8ebe 81d7 5dbd 0dc5 8dbe
00000180: 913b 2abe 6309 5e3f 26ef 0a3f 7a53 c9be
00000190: f30c d43d 41e8 ae3e fb75 343f 3fa6 563f
000001a0: e46e 5b3e 7621 083e 9c2b 0abe 3a2d c63e
000001b0: 3ae2 fe39 6010 613f a77b 063f 6675 ad3e
000001c0: 5a3f a3bd c844 7dbd 8e1d a03e 262f a13e
000001d0: ceda f73e b323 7d3d 00cb 2c3e 3611 463d
000001e0: 7b7d 393e 7220 9abe d271 c53e 4027 303f
000001f0: 6ee8 853e 7394 7cbc 4fcf 2f3e cfa5 a93e
00000200: 561c 7e3e 515f 353f bcd8 3b3e 546d 263f
00000210: 4edb 8f3e 2ee6 80be 9839 ffbe 449c 86be
00000220: 73f0 743f 52b5 553e 606a 20bf 7e94 debe
00000230: 801d 613e a5a7 c53e 75f0 533f 9c3e 9bbe
00000240: 04be 643d 8326 d6bd 6869 a13e fbec a8be
00000250: 9008 ec3e 5c31 f03e d42d 233f 5ca4 cabe
00000260: 0aef 403e 7877 123f 8496 a73e 88ec 0a3f
00000270: a95b 45be 18d6 483e 23e4 723e a199 b73d
00000280: e10a d7be ac88 02bf 8fdf 553f 6f19 0a3f
00000290: 6226 e0be a3df 943e c5b6 ccbd 9445 003f
000002a0: 2ccd 703f 16d8 b2bd b95c e23e 22f3 c03c
000002b0: 0a57 2b3d e6d1 59be b38a 5b3e b4fa 263f
000002c0: 026b 303f f566 30bc 968a ae3e 5e4b ca3e
000002d0: bcf9 3b3f 8801 2b3f 3c0a 313e 2879 f43e
000002e0: 0428 15be 6c1e bc3e 6f32 16be 476c 51bd
000002f0: 9c56 313f ba96 273f 1e0e 4dbf 910a 063e
00000300: 525c fc3e 405f 2f3f c0b9 7c3f 0ab2 8c3e
00000310: 44fd a13e 44f7 e93e 5d9a 57bd f3fc 66be
00000320: 130c d33e d7c3 ef3e ade8 393f ade2 b8bd
00000330: 9d96 9e3e a9a5 063e 8ab0 323f bc95 323f
00000340: e1d0 b1bd c8a4 ac3e 3154 933e 3125 0c3e
00000350: a9bc 9bbd fbda 833e 0ed6 513f fcce 093f
00000360: c8f6 1c3e f31a 543e 9ddb cd3e 33e7 483f
00000370: 0269 663f 4c73 a3be e086 cb3e e1bf 163e
00000380: 6c6c a4be d6c1 ecbe 3c9d 52be 048c 7b3f
00000390: 16eb a53e a3b5 12bf 3667 bdbe 83ef ba3e
000003a0: 00ac c13e 3f8e 283f 4716 2cbd a609 c13e
000003b0: 92f4 a5bd d1bc 4fbd ab7f 8abe 23db 483e
000003c0: c160 643f 5147 dd3e 8b16 333e 3edd eb3e
000003d0: b686 f63e 8708 223f 1b31 2f3f 7d3e 9bbe
000003e0: c796 9b3e f649 a73e 0d61 863e 2676 063e
000003f0: 2a78 3c3f b5ab da3e 6458 f33e b8b1 ad3d

backbone.0.bias f4 [128]
0.2763132 0.47555137 0.49339572 0.25453597 0.56077164 0.6528755 0.41248918 0.43166962
0.5870166 0.43656236 0.14036423 0.47315222 0.3443215 0.6844567 0.20632325 0.37697026
0.40671915 0.32427633 0.26062605 0.6200842 0.5420515 0.3564962 0.2028296 0.46317294
0.5895956 0.59276116 0.32002875 0.31039855 0.7137394 0.34997994 0.70333916 0.4691877
0.6610866 0.21063589 0.45045632 -0.00748945 0.47337395 0.046369817 0.7562128 0.73184884
0.64344025 0.25347167 0.38580418 0.33433747 0.70212054 0.41617948 0.5990248 0.28159058
0.5756808 0.50845754 0.5175586 0.67927736 0.37339053 0.42913276 0.64034396 0.5033543
0.37305626 0.60904586 0.7173508 0.7076059 0.25151062 0.56431234 0.516766 0.37434283
-0.028229536 0.5626551 0.54526883 0.7288021 0.41297883 0.46649885 0.32647425 0.11099414
0.40053907 0.6808614 0.64145625 0.08962775 0.61068183 0.2683502 0.67262214 0.18503822
0.4539501 0.2099222 0.22746052 0.40108708 0.6895827 0.7726824 0.48426217 0.51715946
0.5002411 0.23634541 0.58190984 0.40616497 0.13966224 0.56040335 0.07593842 0.3873605
0.43440667 0.771394 0.55917275 0.27718303 0.44927135 0.27417138 0.3610845 0.44674554
0.6225728 0.41764817 0.52900136 0.62192976 0.7243039 0.56507236 0.44757906 0.43638277
0.34285608 0.7636524 0.37827292 0.6972792 0.32800907 0.51809084 0.33762094 0.6087503
0.55205417 0.43583545 0.55293036 0.28292075 0.6861854 0.4701781 0.29373035 0.1814289
00000000: ec78 8d3e 787b f33e 5d9e fc3e 8a52 823e
00000010: bb8e 0f3f d922 273f c831 d33e cd03 dd3e
00000020: b846 163f 1a85 df3e a4bb 0f3e 0241 f23e
00000030: e84a b03e 8e38 2f3f 6746 533e 3f02 c13e
00000040: 7e3d d03e 8c07 a63e c770 853e d7bd 1e3f
00000050: e3c3 0a3f ac86 b63e 90b2 4f3e 0125 ed3e
00000060: bdef 163f 32bf 173f cfda a33e 8fec 9e3e
00000070: a0b7 363f 9230 b33e 090e 343f 5f39 f03e
00000080: f93c 293f efb0 573e 36a2 e63e 0f6a f5bb
00000090: 125e f23e 47ee 3d3d 2997 413f 725a 3b3f
000000a0: 80b8 243f 0ac7 813e 2088 c53e 482e ab3e
000000b0: 2cbe 333f 7a15 d53e b059 193f a42c 903e
000000c0: d15f 133f 462a 023f b87e 043f 1fe5 2d3f
000000d0: 0b2d bf3e 4ab7 db3e 95ed 233f d4db 003f
000000e0: 3b01 bf3e 6eea 1b3f 4da4 373f a925 353f
000000f0: 00c6 803e c676 103f c74a 043f dda9 bf3e
00000100: a141 e7bc 2a0a 103f bd96 0b3f c692 3a3f
00000110: f671 d33e f0d8 ee3e a227 a73e e550 e33d
00000120: 7513 cd3e ef4c 2e3f 7a36 243f c18e b73d
00000130: a555 1c3f 3365 893e f730 2c3f a97a 3d3e
00000140: 266c e83e d8f5 563e 69eb 683e 495b cd3e
00000150: 7e88 303f 84ce 453f 36f1 f73e 9064 043f
00000160: cd0f 003f 8804 723e 0bf8 143f dbf4 cf3e
00000170: 9e03 0f3e 9876 0f3f 9a85 9b3d 1e54 c63e
00000180: 8d6a de3e 147a 453f f225 0f3f efea 8d3e
00000190: e506 e63e 3160 8c3e 11e0 b83e d5bb e43e
000001a0: ee60 1f3f fbd5 d53e a26c 073f ca36 1f3f
000001b0: fb6b 393f 95a8 103f 1529 e53e 906d df3e
000001c0: d58a af3e b97e 433f fdac c13e e480 323f
000001d0: cef0 a73e 9aa1 043f a7dc ac3e 0fd7 1b3f
000001e0: 6c53 0d3f d325 df3e d88c 0d3f fdda 903e
000001f0: d9a9 2f3f 2fbb f03e d363 963e 7fc8 393e

backbone.2.weight f4 [128, 128]
0.2860692 0.3056282 0.32267237 0.27922428 0.3151403 0.19293979 0.16756268 0.34890565
0.17316432 0.2222187 0.35419682 0.23118646 0.3430692 0.23655081 0.28958145 0.2865751
0.2577419 0.28008363 0.27692404 0.16244015 0.30851507 0.23057535 0.23051009 0.28925154
0.20814636 0.3161521 0.33654064 0.31142277 0.19691783 0.27278015 0.28010404 0.16706821
0.32329363 0.1973751 0.30568236 0.27543998 0.18976468 0.31864858 0.26748636 0.18089752
0.2705242 0.32845268 0.23044616 0.3779612 0.21638092 0.2694997 0.22093831 0.21738799
0.314599 0.3121712 0.30671215 0.1864074 0.20897406 0.34628963 0.3180005 0.32073957
0.30911654 0.33713552 0.36521038 0.27824634 0.26994616 0.29782647 0.1675246 0.25495517
0.21812741 0.3649279 0.2897622 0.30671024 0.22971854 0.37243637 0.23970807 0.20370212
0.3295773 0.2525283 0.21777928 0.31539986 0.3562926 0.264435 0.28552818 0.39725977
0.20625491 0.3003703 0.2670888 0.36828068 0.323497 0.26731378 0.30424434 0.35157558
0.35465416 0.3331635 0.23243313 0.24381034 0.42985824 0.2970901 0.319058 0.24398676
0.2811668 0.23043449 0.2544435 0.30264288 0.19804193 0.2618714 0.29721966 0.1705756
0.2161686 0.31928843 0.24828357 0.28841934 0.16296954 0.2899913 0.24739769 0.37560692
0.30746567 0.2688817 0.28433087 0.3382942 0.26603055 0.36085194 0.19507436 0.29224542
0.32058242 0.21401694 0.3104338 0.2826937 0.363163 0.3064791 0.34481618 0.20659262
0.27886808 0.1532011 0.11826462 0.27885452 0.25677657 0.14071475 0.19313551 0.21077839
0.17323071 0.18621981 0.19908439 0.26828432 0.25620925 0.2496053 0.1408884 0.28933153
0.18915233 0.34203714 0.30030552 0.23697488 0.1428843 0.2455481 0.270959 0.27692655
0.19092734 0.2731548 0.2126412 0.20746905 0.25322378 0.30967247 0.23577297 0.24260893
0.2593588 0.21905121 0.26390174 0.19514163 0.21178028 0.193861 0.22118305 0.21335472
0.19158673 0.2113731 0.2123052 0.27059495 0.262444 0.29112202 0.1258974 0.31460494
0.29644582 0.22725193 0.17105937 0.18700741 0.32209042 0.20878522 0.17258722 0.18124679
0.1770518 0.18738756 0.29138175 0.22459811 0.1407712 0.27004993 0.23665546 0.31094095
0.25780788 0.30608097 0.28552362 0.2852256 0.2387683 0.24496087 0.2251927 0.22357526
0.2190739 0.25764242 0.23945126 0.27864698 0.15533295 0.15150109 0.14464313 0.2544136
0.2655761 0.2751935 0.18854919 0.24537902 0.27215546 0.26054266 0.25699806 0.232607
0.21406764 0.23650803 0.24047244 0.2174342 0.2043773 0.24322195 0.18302651 0.22541606
0.20828758 0.24867871 0.29334444 0.13886513 0.15739425 0.18512638 0.24386907 0.15418519
0.2560134 0.21759355 0.22697935 0.14952083 0.13560067 0.24779055 0.28371263 0.20287074
0.17399709 0.27842498 0.15705127 0.19263037 0.2312042 0.1721209 0.23299125 0.28634727
0.21022674 0.2676498 0.1875452 0.21594404 0.23326196 0.18197434 0.20412464 0.24080212
00000000: aa77 923e 4d7b 9c3e 5035 a53e 7cf6 8e3e
00000010: 125a a13e 0292 453e 8d95 2b3e c3a3 b23e
00000020: fd51 313e 4d8d 633e 4959 b53e 25bc 6c3e
00000030: c4a6 af3e 603a 723e 0544 943e f9b9 923e
00000040: bff6 833e 1f67 8f3e fdc8 8d3e b656 263e
00000050: b0f5 9d3e f21b 6c3e d60a 6c3e c718 943e
00000060: 5224 553e b0de a13e 0e4f ac3e ce72 9f3e
00000070: d4a4 493e d7a9 8b3e cc69 8f3e ee13 2b3e
00000080: be86 a53e b31c 4a3e 6682 9c3e 7806 8d3e
00000090: ac51 423e e825 a33e f9f3 883e 333d 393e
000000a0: 2682 8a3e f32a a83e 14fa 6b3e 2184 c13e
000000b0: f692 5d3e ddfb 893e a73d 623e f59a 5e3e
000000c0: 1f13 a13e e7d4 9f3e 6009 9d3e 95e1 3e3e
000000d0: 4cfd 553e e04c b13e f6d0 a23e fa37 a43e
000000e0: 8644 9e3e 079d ac3e dbfc ba3e 4e76 8e3e
000000f0: 6236 8a3e b67c 983e 928b 2b3e 7c89 823e
00000100: cb5c 5f3e d4d7 ba3e b65b 943e 2009 9d3e
00000110: 563b 6b3e fbaf be3e 0876 753e 4a97 503e
00000120: 5bbe a83e 644b 813e 8801 5f3e 177c a13e
00000130: fc6b b63e 0664 873e c030 923e a265 cb3e
00000140: 7d34 533e 23ca 993e ddbf 883e 498f bc3e
00000150: 66a1 a53e 5add 883e eac5 9b3e b701 b43e
00000160: 3b95 b53e 6894 aa3e f302 6e3e 6ba9 793e
00000170: 6116 dc3e 321c 983e 925b a33e aad7 793e
00000180: 18f5 8f3e 05f7 6b3e 6b46 823e 02f4 9a3e
00000190: 81cb 4a3e 0214 863e 2d2d 983e 5fab 2e3e
000001a0: 4d5b 5d3e c679 a33e 0c3e 7e3e b3ab 933e
000001b0: 7de1 263e bd79 943e d255 7d3e 8d4f c03e
000001c0: 246c 9d3e ddaa 893e d193 913e e634 ad3e
000001d0: 2835 883e 96c1 b83e 93c1 473e 31a1 953e
000001e0: 6123 a43e 4227 5b3e 2ef1 9e3e 3bbd 903e
000001f0: 80f0 b93e d4ea 9c3e bf8b b03e 048d 533e
00000200: ccc7 8e3e c0e0 1c3e b934 f23d 05c6 8e3e
00000210: 3878 833e 8717 103e 51c5 453e 4ad6 573e
00000220: 6463 313e 68b0 3e3e c7dc 4b3e 905c 893e
00000230: dc2d 833e 8898 7f3e 0c45 103e 4323 943e
00000240: 26b1 413e 7e1f af3e a5c1 993e 8ba9 723e
00000250: 4350 123e f670 7b3e 23bb 8a3e 51c9 8d3e
00000260: 7582 433e f2da 8b3e 9dbe 593e c472 543e
00000270: 8ca6 813e 648d 9e3e 786e 713e 7a6e 783e
00000280: adca 843e f64e 603e 211e 873e 35d3 473e
00000290: eedc 583e 7f83 463e cf7d 623e a979 5a3e
000002a0: 502f 443e 3172 583e 8966 593e 6c8b 8a3e
000002b0: 0f5f 863e f20d 953e 3feb 003e e613 a13e
000002c0: bfc7 973e bbb4 683e 302a 2f3e df7e 3f3e
000002d0: 09e9 a43e cbcb 553e b4ba 303e c298 393e
000002e0: 114d 353e 86e2 3f3e fd2f 953e 0cfd 653e
000002f0: 5326 103e fc43 8a3e cf55 723e a733 9f3e
00000300: 65ff 833e a5b6 9c3e 2730 923e 1709 923e
00000310: ad7f 743e 06d7 7a3e ea98 663e eaf0 643e
00000320: e954 603e b5e9 833e b632 753e d1aa 8e3e
00000330: 9a0f 1f3e 1a23 1b3e 541d 143e 8042 823e
00000340: 97f9 873e 2ae6 8c3e 0a13 413e a344 7b3e
00000350: f657 8b3e d965 853e 4095 833e 8830 6e3e
00000360: 8c34 5b3e 292f 723e 683e 763e 12a7 5e3e
00000370: 4848 513e 2d0f 793e 4d6b 3b3e 78d3 663e
00000380: 5749 553e a2a5 7e3e 3e31 963e a932 0e3e
00000390: f52b 213e c591 3d3e d0b8 793e b9e2 1d3e
000003a0: 3014 833e d8d0 5e3e 466d 683e fd1b 193e
000003b0: e7da 0a3e cebc 7d3e c842 913e 59bd 4f3e
000003c0: 4b2c 323e b88d 8e3e 0cd2 203e e540 453e
000003d0: cbc0 6c3e 7640 303e 4295 6e3e 1c9c 923e
000003e0: ae45 573e 6509 893e d90b 403e 6f20 5d3e
000003f0: 39dc 6e3e 7b57 3a3e 0d06 513e d594 763e

backbone.2.bias f4 [128]
0.23864909 0.11593851 0.14832434 0.2508018 0.27359608 0.14777884 0.17796867 0.23359053
0.09315566 -0.0931534 0.17497863 0.32754722 0.19504645 0.33863884 0.23655218 0.19516507
0.2450699 0.26426622 -0.08658225 0.18741427 0.055430975 0.06985752 0.15554698 0.2106183
0.1922002 0.26000658 0.016722038 0.13617857 -0.090845704 -0.026177425 -0.030260274 -0.063420475
0.064553805 0.05977943 0.24342994 0.22394738 0.22193809 0.12433742 -0.06705781 0.26522183
0.20799087 0.0278037 0.08669455 -0.086496495 0.16627139 0.20159452 -0.07603392 0.20236538
0.19101655 0.20226413 0.20014001 0.0078017213 -0.037832167 0.018866206 0.26405352 0.22705929
0.24066983 -0.019434595 0.015727427 0.15599573 0.31870338 0.05412816 0.12129645 0.29710817
-0.044251896 0.12116684 0.044418145 0.035104696 0.31778935 0.1905557 0.059139006 0.0395787
0.18476477 0.13168511 0.27548584 -0.025831727 0.017651338 0.11706263 0.27619874 0.15753542
-0.05612445 0.19105823 0.24979693 -0.06403299 0.2009774 0.2218235 0.020901218 0.18337992
0.2073821 0.13903406 0.71712214 0.0019142871 0.18450093 0.26211613 0.20281696 0.003658737
0.3817929 0.306953 0.050729185 0.23231311 0.023097835 0.25108778 0.24265534 0.23933287
0.15494093 -0.0041517713 0.27660695 0.1898218 0.2896113 0.18878241 0.17597596 0.16018863
0.19383466 0.24365877 -0.03943822 0.04618137 0.012749577 0.18478546 0.09738884 -0.060986657
0.15878598 0.13133092 0.14118063 0.06021464 0.15011647 0.1789976 0.2525973 -0.053305544
00000000: 6d60 743e 2b71 ed3d 56e2 173e 1869 803e
00000010: c914 8c3e 5653 173e 6b3d 363e 5b32 6f3e
00000020: 65c8 be3d 36c7 bebd 992d 333e 45b4 a73e
00000030: 42ba 473e 1262 ad3e bc3a 723e 5ad9 473e
00000040: 9bf3 7a3e e74d 873e 0952 b1bd 87e9 3f3e
00000050: 970b 633d 7611 8f3d b547 1f3e 53ac 573e
00000060: 21d0 443e 951f 853e a8fc 883c 6572 0b3e
00000070: 500d babd 0a72 d6bc 65e4 f7bc 98e2 81bd
00000080: c934 843d 47db 743d b345 793e 7652 653e
00000090: bd43 633e 9ea4 fe3d 9b55 89bd 28cb 873e
000000a0: 8ffb 543e 96c4 e33c ea8c b13d 1325 b1bd
000000b0: 0c43 2a3e cb6e 4e3e acb7 9bbd df38 4f3e
000000c0: d899 433e 541e 4f3e 81f1 4c3e 95a5 ff3b
000000d0: e7f5 1abd 4d8d 9a3c 0632 873e 3b82 683e
000000e0: 2772 763e 4d35 9fbc ced6 803c 58bd 1f3e
000000f0: 172d a33e 7db5 5d3d 466a f83d 901e 983e
00000100: 7a41 35bd 5226 f83d cdef 353d f1c9 0f3d
00000110: 49b5 a23e 0921 433e be3b 723d 461d 223d
00000120: fa32 3d3e 76d8 063e 7b0c 8d3e 0f9d d3bc
00000130: 8a99 903c 88be ef3d ec69 8d3e f750 213e
00000140: c0e2 65bd c5a4 433e c4ca 7f3e ba23 83bd
00000150: 05cd 4d3e b325 633e 0839 ab3c f2c7 3b3e
00000160: f95b 543e f25e 0e3e 5195 373f d1e8 fa3a
00000170: d0ed 3c3e 1634 863e 40af 4f3e 6cc7 6f3b
00000180: 5c7a c33e f228 9d3e 68c9 4f3d 7de3 6d3e
00000190: ac37 bd3c 948e 803e a47a 783e ad13 753e
000001a0: d6a8 1e3e 950b 88bb 6d9f 8d3e a560 423e
000001b0: ef47 943e 2d50 413e 0b33 343e 7d08 243e
000001c0: 987c 463e af81 793e f989 21bd ad28 3d3d
000001d0: 9ae3 503c 6638 3d3e cd73 c73d 25cd 79bd
000001e0: cb98 223e 9d7b 063e a891 103e a0a3 763d
000001f0: 22b8 193e 264b 373e 6f54 813e ea56 5abd

head_tgt.weight f4 [2, 128]
0.5899786 0.4665902 0.7645858 -1.1561161 0.59336686 0.5570928 0.46792164 0.48057562
0.4322894 0.05563101 0.45815688 0.57823193 0.46281767 0.49715152 0.6085596 0.48213696
0.47736886 0.48822322 0.055017855 0.5253744 -0.070717365 0.03309769 0.44410554 0.42525268
0.53175586 0.41316247 0.07451523 0.5435668 0.009750382 0.010135149 0.13035683 -0.01978919
-0.029592894 0.017790783 0.516902 0.58115906 0.5149217 0.5235532 0.001277682 0.5964917
0.47270933 -0.058963086 0.47467846 -0.017628787 0.5376076 0.43086106 -0.070881285 0.56106937
0.4512943 0.5374116 0.49689984 0.055510417 -0.03192302 -0.037369464 0.57936525 0.48806164
0.56903005 -0.05932119 -0.03083856 0.562326 0.46411973 -0.05312582 0.48638463 1.1542746
0.0053079417 0.412888 0.08025595 -0.019318132 0.55735475 0.4804755 1.2084687 -0.018637566
0.5153067 0.42670903 0.42828542 0.028381174 0.03253268 0.43785453 0.5568973 0.42862523
-0.074972674 0.43491206 0.45150983 -0.03375558 -0.48791724 0.46039143 -0.016689684 0.5112987
0.40857327 0.4213898 2.3039432 1.6680232 0.56226575 0.524988 1.1905022 -0.021813639
0.5465207 0.4217778 -0.050832227 0.48337355 -0.04738105 0.59475344 0.4687648 0.5207825
0.4706074 0.090085186 0.5916874 0.43922758 0.50375956 0.46740636 0.4447247 0.5543066
0.5553911 0.46853948 0.03492256 0.071694106 -0.01843704 0.4252661 0.43919754 0.07283463
0.45227236 0.51264524 0.72912055 0.50872236 0.4840615 0.42155215 0.5657469 -0.06368564
0.4048832 0.44678235 0.5441104 1.5287119 0.5185075 0.39387754 0.47190708 0.36666325
0.485406 0.03789182 0.35870373 0.49841958 0.529518 0.4771187 0.52711 0.44283628
0.41318503 0.4744115 -0.016353449 0.41562128 0.09849829 -0.039380252 0.4638908 0.51724625
0.5047749 0.4732261 0.03968334 0.4584047 0.08207589 -0.0204988 -0.031899698 0.061487075
0.049324654 0.021382194 0.52064854 0.49033073 0.47360718 0.5059775 0.010288139 0.5014944
0.4266045 0.022274215 0.44646716 -0.03153796 0.38242748 0.45199546 -0.04715512 0.49239117
0.51408255 0.38539928 0.38097537 0.06998346 -0.003439043 0.039320182 0.45082653 0.39577708
0.47467974 -0.002052488 -0.008403692 0.35973898 0.5136935 0.0056922943 0.3700639 -0.46544126
0.0033249252 0.40371066 0.024716176 -0.00083231705 0.5117331 0.40107462 -1.3652172 0.051875975
0.474392 0.46412507 0.5341472 0.09392971 0.033003714 0.41286445 0.50103194 0.44565555
-0.061269447 0.43099853 0.5015724 -0.05993094 0.6922232 0.38011009 0.065078475 0.5268137
0.48280418 0.49083984 -2.179438 -1.6462605 0.4282787 0.48921093 -0.7125007 0.065741576
0.47225934 0.51868767 -0.015250881 0.5208418 0.097889684 0.4658912 0.5191516 0.37397507
0.41831598 0.0037807857 0.47740763 0.46466824 0.46669185 0.42397258 0.41779017 0.3762496
0.4805296 0.50925756 -0.05514815 0.063704535 -0.058185276 0.45488104 0.40177962 0.026545053
0.42038578 0.5283706 -0.32643846 0.38362437 0.46498808 0.46854028 0.4802318 0.012343146
00000000: d608 173f e9e4 ee3e e5bb 433f 9dfb 93bf
00000010: e4e6 173f a29d 0e3f 6d93 ef3e 020e f63e
00000020: 0955 dd3e 58dd 633d 8a93 ea3e 0207 143f
00000030: 70f6 ec3e a58a fe3e 90ca 1b3f a8da f63e
00000040: b169 f43e 65f8 f93e 675a 613d f07e 063f
00000050: 44d4 90bd 7291 073d cd61 e33e b8ba d93e
00000060: 2721 083f 088a d33e 719b 983d 3227 0b3f
00000070: 11c0 1f3c e50d 263c 437c 053e f01c a2bc
00000080: cc6c f2bc fabd 913c b153 043f d7c6 143f
00000090: e9d1 033f 9507 063f e577 a73a aeb3 183f
000000a0: f506 f23e 4783 71bd 0e09 f33e 3f6a 90bc
000000b0: a7a0 093f d299 dc3e 352a 91bd 3ea2 0f3f
000000c0: 0c10 e73e ce93 093f a869 fe3e e45e 633d
000000d0: b6c1 02bd b910 19bd 4851 143f 37e3 f93e
000000e0: f4ab 113f c7fa 72bd 26a1 fcbc 99f4 0f3f
000000f0: 1aa1 ed3e 769a 59bd 6807 f93e 45bf 933f
00000100: 3eee ad3b 0e66 d33e 3b5d a43d 0f41 9ebc
00000110: cdae 0e3f e200 f63e 1aaf 9a3f cfad 98bc
00000120: 24eb 033f 9b79 da3e 3a48 db3e a37f e83c
00000130: fd40 053d 782e e03e d290 0e3f c474 db3e
00000140: 468b 99bd cbac de3e 4c2c e73e 4b43 0abd
00000150: 4ad0 f9be 6db8 eb3e ceb8 88bc 79e4 023f
00000160: 8430 d13e 67c0 d73e ce73 1340 c981 d53f
00000170: a6f0 0f3f 9d65 063f 6062 983f 84b2 b2bc
00000180: c8e8 0b3f 43f3 d73e 7435 50bd bd7c f73e
00000190: a212 42bd c341 183f f101 f03e 0052 053f
000001a0: 74f3 f03e 957e b83d d378 173f 70e2 e03e
000001b0: 63f6 003f e34f ef3e f5b2 e33e 0ae7 0d3f
000001c0: 1c2e 0e3f 68e4 ef3e f50a 0f3d 5cd4 923d
000001d0: 4609 97bc 7abc d93e 80de e03e 532a 953d
000001e0: 3e90 e73e b83c 033f a5a7 3a3f a13b 023f
000001f0: e9d6 f73e afd5 d73e cad4 103f 9e6d 82bd
00000200: da4c cf3e a8c0 e43e d24a 0b3f d5ac c33f
00000210: e8bc 043f 51aa c93e ce9d f13e 49bb bb3e
00000220: 2387 f83e 7434 1b3d 04a8 b73e da30 ff3e
00000230: 7e8e 073f e748 f43e aef0 063f 70bb e23e
00000240: fd8c d33e 10e6 f23e abf7 85bc 50cc d43e
00000250: 79b9 c93d 304d 21bd 1883 ed3e 406a 043f
00000260: ee38 013f b14a f23e ff8a 223d 05b4 ea3e
00000270: 6717 a83d 19ed a7bc 42a9 02bd dfd9 7b3d
00000280: a608 4a3d b629 af3c 3949 053f a10c fb3e
00000290: a47c f23e be87 013f 958f 283c f061 003f
000002a0: e86b da3e 6a78 b63c 5897 e43e f32d 01bd
000002b0: 89cd c33e f36b e73e ba25 41bd b21a fc3e
000002c0: ea9a 033f 0e53 c53e 340f c33e 7d53 8f3d
000002d0: 9161 61bb 330e 213d bcd2 e63e 4ba3 ca3e
000002e0: 3909 f33e 0983 06bb a4af 09bc b52f b83e
000002f0: 6b81 033f 6d86 ba3b 0479 bd3e 514e eebe
00000300: fde6 593b 2ab3 ce3e 9479 ca3c da2f 5aba
00000310: f100 033f a759 cd3e 70bf aebf e77b 543d
00000320: 82e3 f23e cda1 ed3e dfbd 083f 385e c03d
00000330: e72e 073d f862 d33e a143 003f f72c e43e
00000340: acf5 7abd d7ab dc3e 0c67 003f 257a 75bd
00000350: 8a35 313f ca9d c23e dd47 853d 43dd 063f
00000360: 1c32 f73e 5c4f fb3e ea7b 0bc0 aab8 d2bf
00000370: 5947 db3e db79 fa3e 7266 36bf 85a3 863d
00000380: facb f13e b7c8 043f d5de 79bc e355 053f
00000390: 637a c83d 4b89 ee3e 1fe7 043f a979 bf3e
000003a0: 832d d63e 0fc7 773b c66e f43e ffe8 ed3e
000003b0: 3cf2 ee3e ef12 d93e 98e8 d53e caa3 c03e
000003c0: fa07 f63e b45e 023f 07e3 61bd 8677 823d
000003d0: af53 6ebd 2be6 e83e 0fb6 cd3e 0375 d93c
000003e0: ce3c d73e 4c43 073f f122 a7be 6a6a c43e
000003f0: eb12 ee3e 83e4 ef3e f1e0 f53e e83a 4a3c

head_tgt.bias f4 [2]
0.32820287 0.06281347
00000000: 350a a83e 59a4 803d

head_macro.weight f4 [3, 128]
-0.07035137 0.00035485343 1.137259 2.3189776 0.025313593 -0.0056582475 -0.003557515 -0.07802699
-0.0066117127 -0.067290045 0.049031228 0.038075928 -0.06862507 0.07541989 -0.05026043 0.05531884
0.06400483 -0.0091178315 0.022229958 -0.0011708713 -0.03151381 0.077241465 0.01265583 0.07443381
0.07937973 0.061413508 -0.04490198 -0.19253096 0.058407385 0.06333157 0.09644868 -0.06668637
-0.04331539 -0.04018098 0.0579093 0.03049931 0.018542504 0.09213591 0.069470465 -0.009812926
0.052430183 0.09529506 0.033893406 0.07285486 -0.06560712 -0.0044650068 0.03134684 0.06710886
0.08331496 0.045413624 -0.08416285 0.07789128 -0.041645937 0.0070552635 0.040964425 0.07178863
0.04936169 -0.04532363 -0.0077706208 -0.043657392 0.028213024 0.088093355 0.007468888 1.4308249
0.007638746 0.04189153 0.08519172 0.021393312 -0.022653455 0.0074289683 -0.6850983 -0.009263629
0.08236749 0.030389793 -0.046349656 -0.028814483 -0.05773408 0.02361519 -0.042853557 -0.08560284
0.07878473 0.08562149 -0.026024437 -0.06782085 1.2721856 -0.058894236 -0.008008825 0.0047704605
0.09089197 -0.04082343 1.359426 -0.6918184 0.036862943 -0.021082316 1.7712706 0.07173863
0.10363527 -0.078342214 0.07329424 0.08459818 -0.0018757979 -0.066834025 -0.28136462 0.010563298
-0.018669201 -0.06349513 0.087660655 -0.08642975 -0.0004966149 -0.056953628 -0.021985749 -0.041858718
0.07277101 0.0022934293 -0.005316195 -0.074269965 0.033705875 0.047397472 -0.033484634 0.016020421
-0.048823863 0.016642425 2.2962072 -0.06459114 0.032874856 -0.05126548 0.052423947 0.04611231
0.026440337 -0.05729641 1.2632636 3.4201622 0.02642929 -0.035410404 -0.011182461 0.007464584
0.06863992 0.0009905663 0.076689646 0.06316011 -0.049654517 0.06473862 0.0073333825 0.15004478
0.13618366 0.054339267 0.064601384 -0.0005572001 0.01567119 0.09320676 -0.059237983 0.072591886
0.06324571 0.10273812 0.0691792 -0.18304944 -0.06778433 -0.010624306 -0.017855894 -0.06289254
-0.035537988 0.049180087 0.036921598 0.014837925 0.015721634 0.027296098 0.09285426 0.16046971
0.08447854 -0.009986838 -0.044057395 0.083615735 0.013290643 0.14296831 -0.0032108934 0.09243699
0.07136933 -0.08041032 -0.049821347 -0.06432326 0.05074941 0.04232589 -0.014955319 -0.03495674
-0.030659506 -0.014583026 -0.050221913 0.010474293 0.0045295996 -0.05574949 -0.04671925 2.0962918
0.10739036 0.008130442 0.07741674 0.022081617 0.120600596 -0.0454507 -0.8378607 -0.052865155
0.07196848 0.012906406 -0.05744329 -0.044134274 0.008485783 -0.05640131 0.104071826 -0.029793633
-0.041897606 0.06966373 0.018462958 0.017684875 1.8943828 -0.101289555 0.076482564 -0.009492398
0.04501091 0.10341596 0.5420188 -1.2816932 0.09486397 0.04370578 2.6848836 0.05810668
0.080408804 0.06564727 0.010778332 -0.020384759 0.0051780343 0.12302778 -0.16059865 0.106344685
0.03852504 -0.058607418 -0.044821367 -0.062604345 0.082756616 0.052143957 -0.045855753 -0.003263951
0.099609025 -0.08466661 0.065863155 -0.023228323 -0.070669696 0.07236159 -0.07331115 0.08426596
0.058699585 0.062988326 2.9494216 0.11917358 0.007873428 -0.002866161 0.11581671 0.006014399
00000000: 6114 90bd 9f0b ba39 b491 913f 216a 1440
00000010: 745e cf3c d268 b9bb 3325 69bb 9dcc 9fbd
00000020: 11a7 d8bb 5dcf 89bd f8d4 483d 81f5 1b3d
00000030: 4d8b 8cbd be75 9a3d e1dd 4dbd 0296 623d
00000040: f714 833d f562 15bc 9a1b b63c ec77 99ba
00000050: a014 01bd c630 9e3d 665a 4f3c c170 983d
00000060: d791 a23d bb8c 7b3d 23eb 37bd d626 45be
00000070: 953c 6f3d fbb3 813d e386 c53d dd92 88bd
00000080: 7a6b 31bd d094 24bd 4d32 6d3d b0d9 f93c
00000090: 73e6 973c c1b1 bc3d 8846 8e3d 65c6 20bc
000000a0: 08c1 563d 0e2a c33d d0d3 0a3d ee34 953d
000000b0: 075d 86bd 314f 92bb 8b65 003d 5f70 893d
000000c0: 09a1 aa3d a303 3a3d 935d acbd 7785 9f3d
000000d0: ee94 2abd d72f e73b 50ca 273d eb05 933d
000000e0: 7c2f 4a3d 45a5 39bd b1a0 febb 18d2 32bd
000000f0: 001f e73c 4a6a b43d 93bd f43b 4525 b73f
00000100: 724e fa3b 7496 2b3d ff78 ae3d 0741 af3c
00000110: bd93 b9bc b46e f33b 9a62 2fbf 7ac6 17bc
00000120: 49b0 a83d 04f4 f83c 23d9 3dbd 5a0c ecbc
00000130: 927a 6cbd a574 c13c 3687 2fbd 8b50 afbd
00000140: e359 a13d 525a af3d 3331 d5bc a8e5 8abd
00000150: fad6 a23f 153b 71bd 7237 03bc 8651 9c3b
00000160: 9225 ba3d 7836 27bd ac01 ae3f 031b 31bf
00000170: 99fd 163d d2b4 acbc ffb8 e23f b4eb 923d
00000180: ba3e d43d e271 a0bd 4a1b 963d d041 ad3d
00000190: 55dd f5ba 47e0 88bd 060f 90be af11 2d3c
000001a0: 27f0 98bc bc09 82bd 6e87 b33d 1502 b1bd
000001b0: 432f 02ba 3548 69bd 751b b4bc 0c74 2bbd
000001c0: f808 953d 5c4d 163b 7a33 aebb da1a 98bd
000001d0: 2c0f 0a3d da23 423d 2f27 09bd 423d 833c
000001e0: 88fb 47bd b255 883c 0ff5 1240 5c48 84bd
000001f0: c9a7 063d c1fb 51bd 7eba 563d 43e0 3c3d
00000200: 6899 d83c a4af 6abd 9fb2 a13f f0e3 5a40
00000210: 3d82 d83c 800a 11bd a436 37bc 7899 f43b
00000220: 1693 8c3d e4d5 813a 760f 9d3d 165a 813d
00000230: 8962 4bbd ae95 843d df4c f03b 57a5 193e
00000240: bb73 0b3e da92 5e3d bb4d 843d 1111 12ba
00000250: de60 803c 30e3 be3d 87a3 72bd 0eab 943d
00000260: f886 813d 5d68 d23d d3ad 8d3d 5071 3bbe
00000270: 83d2 8abd 9211 2ebc 8646 92bc cecd 80bd
00000280: 4890 11bd 0f71 493d 1a3b 173d c51a 733c
00000290: a8ca 803c 119c df3c 602a be3d 2c52 243e
000002a0: 1603 ad3d d69f 23bc 8775 34bd ba3e ab3d
000002b0: ffc0 593c 4966 123e da6d 52bb 9b4f bd3d
000002c0: 152a 923d 2aae a4bd 7811 4cbd eabb 83bd
000002d0: 9dde 4f3d ea5d 2d3d 2807 75bc cc2e 0fbd
000002e0: a529 fbbc a5ed 6ebc 7eb5 4dbd 5e9c 2b3c
000002f0: 096d 943b 9459 64bd af5c 3fbd a529 0640
00000300: 7aef db3d 8c35 053c ab8c 9e3d 82e4 b43c
00000310: 72fd f63d 832a 3abd 0a7e 56bf 2289 58bd
00000320: 3664 933d 6475 533c a849 6bbd 24c6 34bd
00000330: f407 0b3c 0f05 67bd 9c23 d53d c711 f4bc
00000340: d39c 2bbd dcab 8e3d a13f 973c dfdf 903c
00000350: 237b f23f e670 cfbd e4a2 9c3d 0186 1bbc
00000360: 5c5d 383d bfcb d33d bec1 0a3f 860e a4bf
00000370: 0b48 c23d d504 333d 22d5 2b40 4501 6e3d
00000380: 5fad a43d 1372 863d 9a97 303c f0fd a6bc
00000390: 80ac a93b fdf5 fb3d f973 24be 3ecb d93d
000003a0: 6fcc 1d3d 550e 70bd 9c96 37bd b536 80bd
000003b0: 4d7c a93d e794 553d 3ed3 3bbd 03e8 55bb
000003c0: d1ff cb3d b065 adbd 43e3 863d 5349 bebc
000003d0: 46bb 90bd 5032 943d 2824 96bd a293 ac3d
000003e0: fa6e 703d 0600 813d 53c3 3c40 4711 f43d
000003f0: 8dff 003c 34d6 3bbb 5031 ed3d 7014 c53b

head_macro.bias f4 [3]
0.6179601 0.951624 0.50893676
00000000: a232 1e3f a19d 733f ae49 023f

head_meals.weight f4 [4, 128]
0.051354025 0.06520988 -0.07136914 -0.045705803 0.07073778 0.072619475 -0.028246107 0.10065889
-0.06475359 0.030894412 -0.050330188 0.02696486 0.11287491 0.015721193 0.012830737 -0.011508553
0.0817674 0.023331335 0.05680998 -0.05840184 0.043904074 0.04451047 0.017972885 0.024333201
-0.06587636 0.08058421 -0.006779522 -0.071325034 -0.059902836 0.03785262 -0.08862116 0.071193375
0.08717154 0.07399292 -0.022400914 -0.0071740216 -0.033773646 0.023598261 -0.027287267 0.054778904
-0.004072948 -0.056018017 -0.048329968 -0.08077346 -0.040307757 -0.04991275 0.08239696 -0.023542024
0.08081167 0.036794398 0.10468016 0.0440067 0.07101087 -0.02843725 -0.0520536 0.03200679
0.024120096 0.03390343 -0.080722354 0.073867075 0.05014416 -0.061983164 0.08309166 -0.41768068
-0.028253175 -0.044042077 -0.05529686 0.01696171 0.031242318 0.0031945556 0.09499442 -0.018817458
-0.03361093 -0.005934914 0.07822319 0.055069596 0.07762074 -0.057823952 -0.020578593 0.067709155
-0.074209295 0.08436421 0.10915212 0.08527675 -0.18830797 0.08731753 0.058171146 -0.043629292
0.00020458284 0.08872172 0.01696724 -0.040060528 0.077656895 0.06478255 -0.4159318 0.039093982
0.04298219 -0.00064488355 0.01735964 0.058590267 0.063340865 0.004820816 -0.02577136 0.072900675
0.03412256 -0.059594993 0.08417098 -0.021497546 0.049859144 0.042882252 0.058288354 -0.017815769
-0.028789077 0.07773144 -0.038083427 -0.0714429 0.009043996 0.052420266 0.08916873 0.024266925
0.046612155 0.09913452 -0.11256029 0.016990978 0.007328291 0.060364466 0.10802971 0.093684435
0.06940399 -0.05956141 0.051693138 0.058130585 0.092437804 0.056594435 0.08167209 0.0066623455
0.09610157 0.035068125 0.050967153 0.05907701 0.043094832 0.068794735 -0.009018558 0.08438998
0.023351472 0.10573122 0.0010001005 0.021656467 0.0056279814 -0.009593204 -0.052766554 0.04099815
0.065829046 -0.03222217 -0.0020561186 -0.018590827 -0.04114214 -0.016236087 -0.018161979 0.022006962
-0.038862832 -0.07017106 0.070861466 0.038962863 0.09378079 0.10120691 -0.07304967 0.0897763
-0.0036204727 -0.005820959 0.103099264 -0.07828904 0.04002527 0.039591376 0.010093084 0.09356132
0.077997096 0.06967265 0.002754327 0.017210394 0.030381355 -0.044024177 0.025022116 -0.01436901
0.09012401 0.05113571 -0.032560285 -0.010720509 0.07380864 -0.017715111 0.0062517896 0.26609054
-0.054188542 0.05115653 -0.00974985 -0.06362593 0.1006977 0.1101681 0.07506274 -0.037234973
0.08709201 0.11445924 0.021963067 0.028197614 -0.061251875 0.11115356 -0.011512203 0.016507717
-0.021360412 0.047548976 0.058948748 -0.05162684 0.06762341 0.0119624445 -0.066466935 0.024705723
0.091859445 0.051421206 0.04255181 -0.06988629 -0.016622445 -0.02126101 0.108533904 -0.035482083
0.06743561 0.09038819 -0.033069197 0.011600888 -0.036400445 0.08435534 -0.026599228 0.10987925
0.07470418 -0.06807823 0.09759846 -0.03888216 0.022940446 0.012529405 0.08614554 0.09483551
0.103338614 0.038732544 -0.032992553 -0.01866688 -0.025254102 0.04264497 -0.034475006 -0.033126466
-0.029597767 0.049342167 -0.0015351507 0.06818705 0.01836135 0.049586017 -0.015142402 -0.028070616
00000000: 9958 523d c28c 853d fc29 92bd 0236 3bbd
00000010: f8de 903d 85b9 943d 6164 e7bc 4026 ce3d
00000020: 889d 84bd 4716 fd3c 0727 4ebd 69e5 dc3c
00000030: f62a e73d bbc9 803c 0338 523c 5f8e 3cbc
00000040: ab75 a73d 5b21 bf3c 95b1 683d c536 6fbd
00000050: c2d4 333d 9c50 363d df3b 933c 6c56 c73c
00000060: 2fea 86bd 5609 a53d c126 debb dc12 92bd
00000070: ad5c 75bd 590b 1b3d 037f b5bd d5cd 913d
00000080: fe86 b23d 9a89 973d 1f82 b7bc 0e14 ebbb
00000090: 3c56 0abd 2451 c13c 8c89 dfbc d85f 603d
000000a0: 5d76 85bb 2673 65bd a5f5 45bd 8e6c a5bd
000000b0: bf19 25bd 5071 4cbd bdbf a83d 34db c0bc
000000c0: 9780 a53d b9b5 163d 8d62 d63d 5f40 343d
000000d0: 266e 913d 3cf5 e8bc 2836 55bd 8d19 033d
000000e0: 8297 c53c 53de 0a3d c351 a5bd 9f47 973d
000000f0: f663 4d3d 0fe2 7dbd f62b aa3d 3eda d5be
00000100: 3473 e7bc 7765 34bd f67e 62bd 49f3 8a3c
00000110: e4ef ff3c c05b 513b 6f8c c23d 1227 9abc
00000120: 9dab 09bd ab79 c2bb 7b33 a03d a890 613d
00000130: 9ff7 9e3d cfd8 6cbd 7094 a8bc 19ab 8a3d
00000140: 0bfb 97bd 25c7 ac3d 268b df3d 94a5 ae3d
00000150: ced3 40be 88d3 b23d de44 6e3d a1b4 32bd
00000160: 4a85 5639 bcb3 b53d e2fe 8a3c 8216 24bd
00000170: 940a 9f3d b7ac 843d 03f5 d4be 0321 203d
00000180: 180e 303d 670d 29ba ce35 8e3c 59fc 6f3d
00000190: dbb8 813d f0f7 9d3b 761e d3bc f34c 953d
000001a0: 19c4 0b3d e119 74bd d661 ac3d 9f1b b0bc
000001b0: 1a39 4c3d 4da5 2f3d c5bf 6e3d 60f2 91bc
000001c0: 12d7 ebbc a931 9f3d 5efd 1bbd a850 92bd
000001d0: 452d 143c a2b6 563d 189e b63d 6ecb c63c
000001e0: 63ec 3e3d 0a07 cb3d 0286 e6bd aa30 8b3c
000001f0: 2922 f03b bb40 773d ae3e dd3d a0dd bf3d
00000200: ae23 8e3d aaf6 73bd 2fbc 533d 561a 6e3d
00000210: 0850 bd3d 91cf 673d b243 a73d ce4f da3b
00000220: e6d0 c43d 98a3 0f3d efc2 503d bcfa 713d
00000230: 3584 303d 41e4 8c3d 93c2 13bc a7d4 ac3d
00000240: 964b bf3c 9c89 d83d ce15 833a e768 b13c
00000250: ee6a b83b d02c 1dbc be21 58bd aded 273d
00000260: 61d1 863d 65fb 03bd f2bf 06bb ca4b 98bc
00000270: a984 28bd 8b01 85bc 6ec8 94bc f247 b43c
00000280: a22e 1fbd d8b5 8fbd d11f 913d 8697 1f3d
00000290: 2510 c03d 9245 cf3d 119b 95bd a3dc b73d
000002a0: 7445 6dbb bebd bebb b525 d33d 0156 a0bd
000002b0: 8af1 233d 912a 223d 765d 253c 149d bf3d
000002c0: f1bc 9f3d 89b0 8e3d f081 343b d0fc 8c3c
000002d0: 52e2 f83c b252 34bd 2efb cc3c ff6b 6bbc
000002e0: f092 b83d ae73 513d ef5d 05bd 13a5 2fbc
000002f0: fc28 973d 481f 91bc d0db cc3b 053d 883e
00000300: cef4 5dbd 8289 513d d6bd 1fbc 504e 82bd
00000310: 993a ce3d d09f e13d 7eba 993d b383 18bd
00000320: 4c5d b23d 9b69 ea3d e4eb b33c affe e63c
00000330: 3fe3 7abd 7aa4 e33d ae9d 3cbc 313b 873c
00000340: 08fc aebc b7c2 423d 3e74 713d aa76 53bd
00000350: 247e 8a3d 21fe 433c d11f 88bd a863 ca3c
00000360: ce20 bc3d 0b9f 523d cf4a 2e3d 8b20 8fbd
00000370: cb2b 88bc 922b aebc 0647 de3d a955 11bd
00000380: ae1b 8a3d 711d b93d 9173 07bd a711 3e3c
00000390: a218 15bd 7ec2 ac3d a0e6 d9bc 5f08 e13d
000003a0: 81fe 983d 996c 8bbd b4e1 c73d e642 1fbd
000003b0: 9aed bb3c 2248 4d3c 136d b03d 1f39 c23d
000003c0: 32a3 d33d 04a6 1e3d 3323 07bd 49eb 98bc
000003d0: b1e1 cebc 7eac 2e3d aa35 0dbd 9eaf 07bd
000003e0: 0477 f2bc 031b 4a3d 1c37 c9ba a7a5 8b3d
000003f0: 8b6a 963c b51a 4b3d d617 78bc 59f4 e5bc

head_meals.bias f4 [4]
-0.05342548 -0.033899162 0.0060919737 0.0130222775
00000000: add4 5abd d9d9 0abd 2e9f c73b 645b 553c
